symbolic_model.pth (torch, 20174 bytes, 5 tensors)

layers.0.weight f4 [64, 1]
-0.12528825 0.55857 -0.13186686 -0.79551935 -0.72471905 -0.109545484 0.373602 0.88573265
0.87114424 0.8662769 -0.608787 0.3945731 0.7757903 0.2398548 0.00047516823 0.7664286
0.05264471 0.049384117 0.37861133 0.54544395 0.6964186 -0.12808755 -0.6856936 -0.5528418
0.4148595 -0.13784292 0.4928923 -0.25538373 0.48515168 -0.43101537 -0.5803008 -0.23655605
0.4770919 -0.85478526 -0.0943915 -0.03271342 -0.21464883 0.0711422 0.2913829 0.18474463
0.18357953 -1.3090788 -0.947101 0.07877529 0.08449386 -0.3145479 0.22710754 -0.030893207
0.25718206 -0.6947488 0.0718162 0.089742646 -0.32596374 -0.32078314 0.8154233 -0.014119625
0.8286352 0.6137848 -0.7735449 -0.43647778 -0.5664922 -0.84545076 0.60168916 -0.31493682
00000000: 904b 00be 72fe 0e3f 1b08 07be 28a7 4bbf
00000010: 3087 39bf 6259 e0bd c348 bf3e 60bf 623f
00000020: 4f03 5f3f 53c4 5d3f 77d9 1bbf 7c05 ca3e
00000030: 319a 463f 7f9c 753e 0020 f939 aa34 443f
00000040: fba1 573d 0047 4a3d 58d9 c13e 37a2 0b3f
00000050: 7d48 323f 6229 03be 9e89 2fbf 0a87 0dbf
00000060: 7768 d43e b226 0dbe 615c fc3e a8c1 82be
00000070: cd65 f83e 0cae dcbe 988e 14bf c03b 72be
00000080: 6445 f43e 35d3 5abf 5550 c1bd 82fe 05bd
00000090: e7cc 5bbe 00b3 913d 2430 953e b22d 3d3e
000000a0: 46fc 3b3e e58f a7bf 3675 72bf f054 a13d
000000b0: 1e0b ad3d 6c0c a1be e18e 683e c013 fdbc
000000c0: 5ead 833e 0fdb 31bf 5f14 933d feca b73d
000000d0: b8e4 a6be b03d a4be 95bf 503f 0056 67bc
000000e0: 7021 543f 0021 1d3f 0a07 46bf 047a dfbe
000000f0: a205 11bf 766f 58bf 4d08 1a3f 663f a1be

layers.0.bias f4 [64]
-0.81156766 -0.049145024 0.7396335 -0.5536057 -0.99561274 0.3520231 0.63584 -0.069218084
-0.3557224 0.33414117 0.18446629 -0.50195456 -0.6737645 -0.7935852 -0.6952212 -0.3428961
-0.5563489 -0.95908487 -0.32463315 0.13869971 0.07740003 0.37721208 -0.13085866 -0.89866424
-0.73641324 0.6981527 -0.93473184 -0.60174215 -0.35341308 -0.058621168 -0.5888113 -0.5694108
-0.61325 0.7212847 0.5345675 0.45291495 0.7032861 -0.83678055 -0.37417316 0.123845585
0.9383651 0.40239304 -0.79910445 0.90513575 -0.85016805 -0.2233938 -0.9395372 -0.19492006
0.12817024 0.212088 -0.4804245 0.30763906 -0.9886395 -0.1943587 0.6335188 -0.5530933
-0.17111747 -0.6704917 -0.5829983 0.5553616 -0.3655132 0.7130583 -0.23297581 1.0276606
00000000: e6c2 4fbf 4b4c 49bd 9f58 3d3f 1ab9 0dbf
00000010: 7ae0 7ebf 5f3c b43e 69c6 223f 36c2 8dbd
00000020: 3f21 b6be 8d14 ab3e bbe4 3c3e 1880 00bf
00000030: d57b 2cbf 6628 4bbf 04fa 31bf 1490 afbe
00000040: e26c 0ebf 9686 75bf 5136 a6be 4c07 0e3e
00000050: e883 9e3d f121 c13e d0ff 05be dc0e 66bf
00000060: 9485 3cbf 23ba 323f 964a 6fbf c60b 1abf
00000070: 8ff2 b4be c01c 70bd 56bc 16bf e8c4 11bf
00000080: f4fd 1cbf 1da6 383f 6ad9 083f 78e4 e73e
00000090: 8f0a 343f 4037 56bf a093 bfbe c1a2 fd3d
000000a0: b238 703f 7606 ce3e 1c92 4cbf fab6 673f
000000b0: 9da4 59bf 58c1 64be 8385 70bf 2099 47be
000000c0: 0f3f 033e 992d 593e 33fa f5be de82 9d3e
000000d0: 7a17 7dbf f805 47be 4a2e 223f 8697 0dbf
000000e0: 6b39 2fbe 58a5 2bbf 603f 15bf 2e2c 0e3f
000000f0: 8c24 bbbe fd8a 363f 3691 6ebe 628a 833f

layers.2.weight f4 [64, 64]
0.09404832 -0.13745545 -0.054869864 0.034702837 -0.11329886 0.13026561 -0.008355619 0.097938225
0.009582877 -0.06079769 -0.33519188 -0.030445317 -0.14163317 -0.011963005 -0.09344174 0.0031007186
0.047851615 -0.119099915 0.06368603 -0.03619904 0.04253793 0.09512897 0.1067421 -0.051180974
0.071740285 0.015938481 -0.04379181 -0.046280503 -0.033824768 -0.06920144 -0.072584674 0.064525664
-0.061149683 -0.076805435 -0.08031726 0.11389973 -0.062201362 -0.009585708 -0.04381497 -0.059794247
-0.010606796 -0.3362875 -0.08481544 0.027288977 0.10137052 -0.10890402 0.0016072359 -0.08150867
-0.016140461 -0.1577383 -0.093739726 0.115473345 -0.0072640628 0.09220907 0.034349352 0.023118556
-0.033150095 -0.061144564 -0.049788117 0.26430166 0.062064648 -0.15827733 0.10399119 0.1596665
0.122680336 -0.035796344 0.044617217 -0.04063195 -0.031435594 0.06741136 -0.036751334 -0.011991365
-0.12704742 0.11129733 -0.10262172 -0.031682167 -0.031638984 -0.0034718185 0.11600423 -0.007175167
0.12814023 0.0004273206 -0.075935654 0.09448523 0.10033809 0.11659857 -0.003829807 0.0949979
-0.108655214 -0.050238404 -0.101012155 0.054055184 -0.028585516 -0.0018770695 0.085365444 0.053934395
0.019345786 -0.108686574 0.04433744 0.08475178 0.09056257 0.095006645 -0.044728164 -0.0897123
0.07648122 -0.17054103 -0.059580877 -0.11194052 0.023564823 -0.036976814 -0.02618159 -0.010077536
0.036768235 -0.23799755 0.02242979 -0.105049916 -0.033080354 0.022545815 0.09133297 0.026420727
0.030587379 0.047682423 -0.021342963 0.11581092 -0.07547721 -0.15058711 0.094382696 0.08584213
0.0829061 0.0011155158 -0.07645176 0.08094938 0.11588363 0.052048683 0.035548747 -0.042548552
-0.10576783 0.0007523447 -0.08011119 -0.0806047 -0.096466616 -0.07147832 -0.06259976 -0.104757115
-0.006138265 -0.015883297 -0.06898925 -0.02698727 0.09274185 0.0018468946 -0.08361408 0.12123653
-0.017728478 -0.03309229 -0.06392136 0.11950873 0.056496143 0.00900808 0.04688607 0.068310216
0.060436666 0.019978702 0.0031794012 -0.07806273 -0.039524436 0.10646357 -0.07100667 -0.117459565
0.112650335 -0.06681198 0.042720973 -0.040811613 0.08033012 -0.0551351 0.074064404 0.07826035
-0.03518398 0.05117187 0.047865912 -0.051474422 0.059917152 0.019747809 -0.1181964 0.08894718
0.032011792 0.03807369 0.108918 -0.08788575 0.113233045 0.018920764 0.011311471 -0.09054501
0.0883262 0.041253924 -0.007101521 0.08781025 0.032042637 0.10760261 -0.019277677 0.09367414
-0.055994794 -0.05515638 -0.10860081 -0.060469434 0.028345197 0.021888673 0.08939192 0.118601546
0.04048936 0.059397936 0.098827735 -0.08921553 -0.12431796 0.00082167983 -0.10017268 0.065125555
0.046703562 0.0017169267 -0.1202178 0.026099429 -0.031295955 0.034323722 -0.037324235 -0.12358007
0.08573827 0.039013922 0.102085695 0.02492933 -0.021138862 -0.07660642 -0.09882863 0.013246074
-0.056375965 -0.046751574 0.027405053 0.015226737 -0.09496325 0.109706685 0.037948936 0.08183955
-0.05448757 0.02638033 0.05157329 -0.023373246 0.02791956 0.010369837 -0.11503281 0.0790527
0.011112928 -0.124950275 -0.010238752 -0.08499734 0.02857703 0.049818754 0.08674446 0.0084721
00000000: 689c c03d 1fc1 0cbe 39bf 60bd 9024 0e3d
00000010: 3c09 e8bd 5964 053e 02e6 08bc d693 c83d
00000020: 8001 1d3c 0007 79bd 459e abbe 7568 f9bc
00000030: 4908 11be 7b00 44bc 625e bfbd 6d35 4b3b
00000040: 0e00 443d a8ea f3bd d26d 823d 7245 14bd
00000050: 413c 2e3d fad2 c23d 9a9b da3d 24a3 51bd
00000060: 92ec 923d 6b91 823c 0a5f 33bd a090 3dbd
00000070: d78b 0abd 7cb9 8dbd 46a7 94bd 0826 843d
00000080: 1778 7abd 2b4c 9dbd 607d a4bd 4344 e93d
00000090: dbc6 7ebd 600d 1dbc 5377 33bd d0ea 74bd
000000a0: 20c8 2dbc e02d acbe b8b3 adbd 228d df3c
000000b0: 599b cf3d 1209 dfbd e3a9 d23a 04ee a6bd
000000c0: 0039 84bc 2686 21be 9dfa bfbd 4a7d ec3d
000000d0: 6007 eebb 1cd8 bc3d e8b1 0c3d 2063 bd3c
000000e0: 65c8 07bd b972 7abd a0ee 4bbd 8c52 873e
000000f0: 8037 7e3d 7413 22be 55f9 d43d 9d7f 233e
00000100: d43f fb3d 309f 12bd 8bc0 363d b06d 26bd
00000110: 9cc2 00bd f80e 8a3d 9188 16bd 6e77 44bc
00000120: b818 02be dbef e33d 562b d2bd 29c5 01bd
00000130: e197 01bd 7387 63bb a093 ed3d aa1d ebbb
00000140: 3137 033e 000a e039 2784 9bbd 7981 c13d
00000150: 0e7e cd3d 3bcb ee3d 80fd 7abb 428e c23d
00000160: a086 debd c9c6 4dbd 76df cebd f868 5d3d
00000170: 2c2c eabc 0008 f6ba 14d4 ae3d 50ea 5c3d
00000180: 0e7b 9e3c 1197 debd 2d9b 353d 5792 ad3d
00000190: de78 b93d d892 c23d e134 37bd 15bb b7bd
000001a0: 30a2 9c3d 4fa2 2ebe 140b 74bd 1241 e5bd
000001b0: 040b c13c 0075 17bd c67a d6bc 401c 25bc
000001c0: 4a9a 163d a1b5 73be aebe b73c 6924 d7bd
000001d0: 447f 07bd 00b2 b83c c80c bb3d 4870 d83c
000001e0: 6292 fa3c a54e 433d 70d7 aebc 472e ed3d
000001f0: cc93 9abd 8233 1abe b74b c13d 00ce af3d
00000200: acca a93d 8036 923a be92 9cbd cac8 a53d
00000210: 6654 ed3d 0031 553d 909b 113d 6447 2ebd
00000220: ce9c d8bd 0039 453a 5611 a4bd 1414 a5bd
00000230: 4a90 c5bd 3a63 92bd 4e34 80bd e68a d6bd
00000240: 8023 c9bb b01d 82bc 3c4a 8dbd 6814 ddbc
00000250: 70ef bd3d 8013 f23a dc3d abbd dc4a f83d
00000260: 503b 91bc c88b 07bd 34e9 82bd fec0 f43d
00000270: 8068 673d a096 133c 9c0b 403d 3ae6 8b3d
00000280: 708c 773d 60aa a33c 805d 503b 5adf 9fbd
00000290: 60e4 21bd 9209 da3d f26b 91bd a48e f0bd
000002a0: 38b5 e63d b8d4 88bd 30fc 2e3d 142a 27bd
000002b0: 1e84 a43d 58d5 61bd 14af 973d f646 a03d
000002c0: 141d 10bd 9899 513d 0c0f 443d d8d6 52bd
000002d0: b06b 753d 28c6 a13c f410 f2bd f029 b63d
000002e0: cc1e 033d 28f3 1b3d 6610 df3d 72fd b3bd
000002f0: bae6 e73d b8ff 9a3c c053 393c aa6f b9bd
00000300: 5ee4 b43d e0f9 283d e0b3 e8bb dcd5 b33d
00000310: 243f 033d c25e dc3d 38ec 9dbc 3ad8 bf3d
00000320: cc5a 65bd a8eb 61bd 1a6a debd ccae 77bd
00000330: 3034 e83c e04f b33c 1c13 b73d 5ee5 f23d
00000340: 2cd8 253d 404b 733d 3266 ca3d a2b6 b6bd
00000350: 6a9a febd 0066 573a 5627 cdbd 8c60 853d
00000360: 3c4c 3f3d 800a e13a c034 f6bd 78ce d53c
00000370: 3030 00bd 0897 0c3d 4ce1 18bd 8c17 fdbd
00000380: 8c97 af3d 10cd 1f3d 4e12 d13d 9838 cc3c
00000390: 682b adbc d4e3 9cbd aa66 cabd 1006 593c
000003a0: 7cea 66bd 947e 3fbd 9080 e03c 9079 793c
000003b0: 187c c2bd e6ad e03d 5870 1b3d 7e9b a73d
000003c0: 5c2e 5fbd 901b d83c 843e 533d 4079 bfbc
000003d0: 90b7 e43c 40e6 293c 5296 ebbd 62e6 a13d
000003e0: 0013 363c eee5 ffbd 70c0 27bc 1613 aebd
000003f0: 601a ea3c c00e 4c3d 14a7 b13d 90ce 0a3c

layers.2.bias f4 [64]
0.06200174 -0.13168582 0.11530362 0.040291443 0.043372754 0.046714123 0.07190932 -0.028032353
0.09695623 -0.0057134214 -0.093310416 -0.10560006 0.04515613 -0.11891949 0.113676876 0.037488043
-0.031468347 0.12118846 -0.10199515 -0.09216009 0.07681298 0.08631086 0.009109512 0.010495362
0.014297977 -0.041621737 0.062594794 0.055978406 0.09753554 -0.067495376 0.14654452 -0.0064210217
-0.0028920646 -0.06685702 0.0504764 -0.042626902 -0.12091732 -0.113994725 -0.008012044 0.16830957
-0.1186854 -0.051646635 -0.012542345 -0.04624247 -0.07193336 0.0015888135 0.0045328215 -0.043158013
-0.12939806 0.054140523 0.10760313 0.14465243 -0.06479675 -0.08688906 0.07248497 0.031707
0.013986534 -0.074149325 -0.11544644 0.14990683 -0.026702227 0.044904128 0.08020074 0.10280419
00000000: 89f5 7d3d a6d8 06be 4e24 ec3d a408 253d
00000010: a1a7 313d 4f57 3f3d 3245 933d 1ba4 e5bc
00000020: fd90 c63d a737 bbbb 8819 bfbd d844 d8bd
00000030: a2f5 383d 108c f3bd 6ccf e83d 108d 193d
00000040: f4e4 00bd a831 f83d d5e2 d0bd 6ebe bcbd
00000050: 2050 9d3d c0c3 b03d 1040 153c bdf4 2b3c
00000060: 1042 6a3c 8e7b 2abd b331 803d 9d49 653d
00000070: b7c0 c73d 043b 8abd c40f 163e 6f67 d2bb
00000080: cb88 3dbb 55ec 88bd 57c0 4e3d 8c99 2ebd
00000090: 80a3 f7bd 1176 e9bd f344 03bc 5859 2c3e
000000a0: 5511 f3bd 6c8b 53bd 687e 4dbc bf68 3dbd
000000b0: cc51 93bd bc3f d03a 1088 943b 75c6 30bd
000000c0: ed80 04be 74c2 5d3d 085f dc3d c41f 143e
000000d0: 29b4 84bd e4f2 b1bd 0073 943d 33df 013d
000000e0: c727 653c 9adb 97bd 2f6f ecbd 2d81 193e
000000f0: a1be dabc 64ed 373d 4940 a43d 018b d23d

layers.4.weight f4 [1, 64]
-0.008090396 -0.018772792 -0.10179521 -0.06873497 0.071065396 -0.01079018 -0.092207566 -0.0009987983
0.038497526 0.025902877 0.16150196 -0.07210623 -0.045848645 -0.015006021 -0.17268354 -0.0004937944
-0.09445058 0.011444079 0.022529388 0.09832765 0.008614395 0.0951366 0.115046844 0.28065652
-0.112591356 0.0059247087 0.14063284 -0.019246245 0.06367831 0.021391615 -0.14060394 0.028282816
0.1362467 0.050519817 0.27126405 -0.083465755 -0.027634457 -0.10938322 0.0041970112 0.20141187
-0.007934411 0.039575964 0.05403657 0.0024855423 0.106500536 0.060702283 -0.016953457 -0.024947584
0.24704368 -0.11341193 -0.015164159 -0.116213635 -0.018763386 -0.022407396 -4.1100857e-06 -0.04096199
-0.031031625 -0.032505836 0.15944025 -0.24339283 -0.06475088 0.09473716 0.08133438 0.05340734
00000000: 958d 04bc 66c9 99bc 027a d0bd ecc4 8cbd
00000010: bc8a 913d 4cc9 30bc 52d7 bcbd 1cea 82ba
00000020: 95af 1d3d 4532 d43c c560 253e 6eac 93bd
00000030: cacb 3bbd d0db 75bc f4d3 30be fb71 01ba
00000040: 4e6f c1bd f27f 3b3c 8d8f b83c 0260 c93d
00000050: 6423 0d3c fad6 c23d ae9d eb3d 36b2 8f3e
00000060: 4c96 e6bd 0f24 c23b 0e02 103e 4daa 9dbc
00000070: c669 823d 783d af3c 7bfa 0fbe 5db1 e73c
00000080: 4184 0b3e deed 4e3d 1fe3 8a3e 18f0 aabd
00000090: a861 e2bc 4f04 e0bd 1587 893b ea3e 4e3e
000000a0: 55ff 01bc 681a 223d 7355 5d3d 7be4 223b
000000b0: f41c da3d f5a2 783d fae1 8abc e05e ccbc
000000c0: 05f9 7c3e 8444 e8bd 1873 78bc 6a01 eebd
000000d0: acb5 99bc b78f b7bc 5ee9 89b6 c2c7 27bd
000000e0: 0936 febc d724 05bd 4e44 233e f83b 79be
000000f0: 1c9c 84bd 8e05 c23d a492 a63d a8c1 5a3d
